…
The cross validation AUC score of the model is **0.64792** 

## Simple Neural Network

With the goal of `fast protyping, fast failing` mindset, our group also try a simple Neural Network. Our group use Keras API with Tensorflow backend over Pytorch. Although both framework are excellent for production grade  modelling, we decided to go with Keras because of its simple, easy to use API with less modification from the boiler plate code base

```
Layer (type)                 Output Shape              Param #   
=================================================================
dense_28 (Dense)             (None, 150)               2400      
_________________________________________________________________
batch_normalization_25 (Batc (None, 150)               600       
_________________________________________________________________
activation_25 (Activation)   (None, 150)               0         
_________________________________________________________________
dropout_25 (Dropout)         (None, 150)               0         
_________________________________________________________________
dense_29 (Dense)             (None, 150)               22650     
_________________________________________________________________
batch_normalization_26 (Batc (None, 150)               600       
_________________________________________________________________
activation_26 (Activation)   (None, 150)               0         
_________________________________________________________________
dropout_26 (Dropout)         (None, 150)               0         
_________________________________________________________________
dense_30 (Dense)             (None, 150)               22650     
_________________________________________________________________
batch_normalization_27 (Batc (None, 150)               600       
_________________________________________________________________
activation_27 (Activation)   (None, 150)               0         
_________________________________________________________________
dropout_27 (Dropout)         (None, 150)               0         
_________________________________________________________________
dense_31 (Dense)             (None, 1)                 151       
=================================================================
```

The model architecture is very basic. We did a batch normalization after the first Dense group with a hope to stay away from the Vanishing Gradient pitfall. We also use a `drop out` rate of 0.2 with a hope to avoid overfitting too much since we are using 2000 `epochs` to train our model.

Our group feel that we have too little data to play with, hence, we use `epoch = 2000` with a hope that model can pick up more meaningful features . We also use large `batch_size` to make the training faster and also to minimize the problem of noisy data when using small `epoch`
…
